…
      (2710): Parameter containing: [torch.float32 of size 10x512]
      (2711): Parameter containing: [torch.float32 of size 512]
      (2712): Parameter containing: [torch.float32 of size 512x10]
      (2713): Parameter containing: [torch.float32 of size 10x512]
      (2714): Parameter containing: [torch.float32 of size 512x10]
      (2715): Parameter containing: [torch.float32 of size 10x512]
  )
)
2026-02-20 20:28:16,693 INFO Image model structure:
2026-02-20 20:28:16,693 INFO TTNImageModel(
  (patch_embed): Sequential(
    (0): Rearrange('b c (h p1) (w p2) -> b (h w) (p1 p2 c)', p1=4, p2=4)
    (1): Linear(in_features=48, out_features=64, bias=True)
  )
  (layers): ModuleList(
    (0): CPQuadRankLayer(
      (norm): LayerNorm((64,), eps=1e-05, elementwise_affine=True)
      (res_proj): Linear(in_features=64, out_features=128, bias=False)
    )
    (1): CPQuadRankLayer(
      (norm): LayerNorm((128,), eps=1e-05, elementwise_affine=True)
      (res_proj): Linear(in_features=128, out_features=256, bias=False)
    )
    (2): CPQuadRankLayer(
      (norm): LayerNorm((256,), eps=1e-05, elementwise_affine=True)
      (res_proj): Linear(in_features=256, out_features=512, bias=False)
    )
    (3): CPQuadRankLayer(
      (norm): LayerNorm((512,), eps=1e-05, elementwise_affine=True)
      (res_proj): Linear(in_features=512, out_features=1024, bias=False)
    )
  )
  (norm): LayerNorm((1024,), eps=1e-05, elementwise_affine=True)
  (head): Linear(in_features=1024, out_features=512, bias=True)
)
2026-02-20 20:28:16,695 INFO AdamW (
Parameter Group 0
    amsgrad: False
    betas: (0.9, 0.999)
    capturable: False
    decoupled_weight_decay: True
    differentiable: False
    eps: 1e-08
    foreach: None
    fused: None
    lr: 0.001
    maximize: False
    weight_decay: 0.001

Parameter Group 1
    amsgrad: False
    betas: (0.9, 0.999)
    capturable: False
…
